mypages/Genetic/model.pth (torch, 772718 bytes, 6 tensors)

line1.weight f4 [4096, 29]
-0.0034237274 -0.002225204 -0.13228123 0.053890686 0.041376043 -0.16693027 0.09593817 0.014680278
-0.030651135 0.09263998 -0.13030818 -0.045980956 -0.107320204 -0.020131558 -0.08080567 -0.12310344
0.13480496 0.17468756 0.12553182 0.08535703 -0.14195101 -0.017529037 -0.04786058 -0.09079687
0.044139683 0.01418189 -0.06443394 0.18588589 -0.1211695 -0.017244855 -0.0184732 -0.019640101
0.052545317 -0.1697919 0.042656127 -0.07387897 0.021235462 -0.07455899 0.10516193 -0.1129583
0.087402955 -0.114540994 0.09694425 0.090531945 0.07224767 0.07134225 0.069870114 -0.16655026
-0.14177881 0.07572541 -0.0017845286 0.008419453 -0.17030908 0.0609291 -0.17741092 0.10900816
0.12429638 0.17486212 -0.014240117 0.015387811 0.10776421 -0.10570788 0.039146118 -0.10456
0.026100049 -0.15711366 0.11768316 -0.05085987 0.049601875 0.036342926 0.14599214 0.07457028
0.05649697 0.05044973 -0.15044184 -0.18396631 -0.0075513176 0.08955439 0.17529921 0.180435
0.16519232 -0.055663846 -0.015699333 -0.12753713 0.15311886 -0.15871927 -0.18263341 0.17376813
-0.1700343 -0.0860547 -0.16171788 -0.08948369 -0.16092694 -0.053189784 0.042643797 0.17808765
0.007062924 -0.17020296 -0.06819567 -0.04530326 0.16068093 -0.09003983 -0.088357784 0.090128765
-0.023073362 0.18257599 -0.17187233 -0.031006359 -0.11001756 -0.049205013 0.058130786 -0.06334243
-0.06998983 -0.025542056 -0.08897888 -0.17458566 0.0018610354 -0.13738847 -0.049933463 0.12227487
0.050434045 -0.036777757 0.10583564 0.18311997 -0.15689112 -0.16602224 0.0508479 -0.07402233
0.16766793 0.1518911 0.12182529 0.15328489 0.102508515 0.03115211 0.016478749 -0.00011754553
-0.014388082 -0.15315795 0.15154238 -0.07116906 -0.09148301 0.13909437 -0.09430899 0.16006581
0.09921289 0.10085168 0.075430855 -0.0630733 0.052169036 0.14759675 -0.030013394 -0.06443738
-0.07849898 -0.010985852 -0.00020114685 0.10421947 0.15837857 -0.110632636 0.13789888 0.035614826
0.021434883 -0.11756137 0.10272534 -0.097575694 0.13010773 0.1760038 0.026852466 -0.11279034
-0.1722447 0.064078815 0.050254058 -0.17495593 0.10585691 -0.1500291 -0.12294522 -0.16347338
0.058724184 -0.13715334 -0.159969 0.05952373 0.058230042 -0.04150226 0.13611679 -0.12288184
0.121633306 -0.0665912 0.1635092 0.073255636 -0.048934795 0.09960932 -0.10731213 -0.1556063
-0.014971153 -0.14830339 0.023918942 -0.13480844 -0.09626271 -0.13612194 0.03499979 0.14763996
0.16551071 0.027653042 -0.09220195 -0.047594182 -0.14820543 -0.0037580598 0.14588411 -0.12799269
0.014236379 0.041039735 -0.17781956 0.009252176 0.019443125 0.09653859 -0.16471753 0.025556892
-0.09567027 -0.1530461 -0.015495682 -0.033341236 0.12011674 -0.089831926 -0.14275412 0.13836
0.030738723 0.15630347 -0.11759848 -0.1729947 -0.054990858 0.10118378 0.15225032 0.10426764
0.06711673 0.018596586 -0.02925162 -0.050216794 0.14027907 0.15992236 0.0690189 -0.14173988
-0.07823071 0.041134045 -0.12286827 0.063502245 0.12525776 -0.17095043 0.03594415 -0.015885502
-0.11439898 0.025201522 0.045606747 -0.061141197 0.086784706 -0.13899209 0.12525709 0.047905598
00000000: 9d60 60bb bad4 11bb bb74 07be 7bbc 5c3d
00000010: ed79 293d c5ef 2abe 3b7b c43d 8c85 703c
00000020: 1718 fbbc 08ba bd3d 826f 05be 8756 3cbd
00000030: b2ca dbbd f0ea a4bc 717d a5bd a81d fcbd
00000040: 500a 0a3e 4ce1 323e 6a8b 003e abcf ae3d
00000050: 9b5b 11be 0e99 8fbc 7509 44bd b6f3 b9bd
00000060: d0cb 343d 285b 683c f1f5 83bd df58 3e3e
00000070: b727 f8bd 1545 8dbc 1c55 97bc 47e4 a0bc
00000080: c239 573d eedd 2dbe 31b8 2e3d dc4d 97bd
00000090: fef5 ad3c 62b2 98bd 235f d73d ae56 e7bd
000000a0: 5200 b33d 7894 eabd b58a c63d d068 b93d
000000b0: 96f6 933d e31b 923d 1018 8f3d 278c 2abe
000000c0: 772e 11be ec15 9b3d d8e6 e9ba bff1 093c
000000d0: 8165 2ebe cb90 793d 35ab 35be ac3f df3d
000000e0: 1a8f fe3d 0e0f 333e 614f 69bc 281d 7c3c
000000f0: 7bb3 dc3d 5f7d d8bd ae57 203d 8e23 d6bd
00000100: c5cf d53c 67e2 20be de03 f13d 7052 50bd
00000110: 562b 4b3d 52dc 143d f77e 153e 4eb8 983d
00000120: 5e69 673d 60a4 4e3d 6d0d 1abe aa61 3cbe
00000130: 0b71 f7bb 4b68 b73d a381 333e f4c3 383e
00000140: 2d28 293e c6ff 63bd e39b 80bc 1899 02be
00000150: 31cb 1c3e 4e87 22be 4104 3bbe 46f0 313e
00000160: 791d 2ebe 723d b0bd 5f99 25be 3a43 b7bd
00000170: 08ca 24be 88dd 59bd 43ab 2e3d 9c5c 363e
00000180: 1a70 e73b af49 2ebe 2caa 8bbd e98f 39bd
00000190: 8b89 243e cd66 b8bd edf4 b4bd 6e95 b83d
000001a0: 5904 bdbc 33f5 3a3e 4dff 2fbe 0c01 febc
000001b0: e350 e1bd 328b 49bd 8c1a 6e3d adb9 81bd
000001c0: d456 8fbd 933d d1bc 8f3a b6bd 95c6 32be
000001d0: fced f33a 90af 0cbe 0887 4cbd 3f6b fa3d
000001e0: ee93 4e3d 46a4 16bd 5bc0 d83d cd83 3b3e
000001f0: 11a8 20be bc01 2abe e345 503d 0599 97bd
00000200: 24b1 2b3e 5789 1b3e 8a7f f93d b7f6 1c3e
00000210: fcef d13d b632 ff3c 71fe 863c c782 f6b8
00000220: fdbb 6bbc 70d5 1cbe ed2d 1b3e 16c1 91bd
00000230: 725b bbbd c16e 0e3e 1225 c1bd 4be8 233e
00000240: 2130 cb3d 538b ce3d 7e7b 9a3d 932c 81bd
00000250: 33af 553d 9a23 173e a6de f5bc bff7 83bd
00000260: 13c4 a0bd 01fe 33bc f2ea 52b9 0471 d53d
00000270: fe2d 223e 5d93 e2bd 5d35 0d3e dae0 113d
00000280: 3598 af3c 04c4 f0bd aa61 d23d c4d5 c7bd
00000290: f63a 053e 573a 343e b4f9 db3c 9ffe e6bd
000002a0: ea60 30be c13b 833d 33d7 4d3d a627 33be
000002b0: 82cb d83d 3aa1 19be b4ca fbbd 9165 27be
000002c0: c588 703d ed71 0cbe eace 23be 28cf 733d
000002d0: a082 6e3d 46fe 29bd 3362 0b3e 79a9 fbbd
000002e0: e21a f93d f860 88bd f56e 273e 0d07 963d
000002f0: da6f 48bd f9ff cb3d 76c6 dbbd 4257 1fbe
00000300: 9149 75bc d8dc 17be a8f1 c33c 390b 0abe
00000310: 6225 c5bd 8d63 0bbe f15b 0f3d ee2e 173e
00000320: a47b 293e a288 e23c 60d4 bcbd 1ef2 42bd
00000330: 2ac3 17be c849 76bb a562 153e 8410 03be
00000340: b43f 693c 4819 283d 5516 36be 7096 173c
00000350: 3047 9f3c 06b6 c53d b6ab 28be b05c d13c
00000360: c6ee c3bd 1eb8 1cbe 9ae1 7dbc d290 08bd
00000370: c4ff f53d cdf9 b7bd 232e 12be 3eae 0d3e
00000380: c6cf fb3c 040e 203e 79d7 f0bd 8625 31be
00000390: 183e 61bd 7139 cf3d 82e7 1b3e 468a d53d
000003a0: 7f74 893d de57 983c 18a1 efbc 20b0 4dbd
000003b0: 51a5 0f3e b0c2 233e c859 8d3d 4224 11be
000003c0: 6c37 a0bd 2c7c 283d 5ca2 fbbd 770d 823d
000003d0: 9243 003e a10d 2fbe 2c3a 133d 5022 82bc
000003e0: 034a eabd 6c73 ce3c 24ce 3a3d 316f 7abd
000003f0: 2ebc b13d f153 0ebe 6543 003e a938 443d

line2.weight f4 [8, 4096]
-0.010512283 -0.004871479 0.011529453 0.014251542 0.007606197 0.013664292 -0.0030078506 -0.0058704433
0.008139199 0.0150491055 -0.014422696 0.010862967 -0.008440326 0.008880756 -0.0074668447 0.0032958887
0.0037844605 0.011460935 -0.0058438196 0.0024390812 0.00087723584 0.0021285622 -0.01470098 -0.0075086732
-0.0023548794 -0.000812143 -0.009066423 -0.005270865 -0.013497127 -0.008713325 -0.010022309 0.0070512183
-0.0022664892 0.0076157753 -0.0078782 -0.00488119 0.0016243636 -0.01163511 0.013937657 0.010655791
-0.0033016228 -0.000622565 -0.007028587 0.004453813 0.014268855 -0.004837534 0.01481078 -0.0038219406
0.0060581323 0.0064254384 -0.009772072 -0.002733917 -0.013854708 -0.002426952 -0.003625167 0.0025762815
0.0012334012 0.0013568827 0.010048352 0.013747007 -0.012275606 -0.0008016275 -0.0003040151 -0.005596969
0.011240433 -0.005649025 0.0045716492 -0.014934657 -0.0131595675 -0.014696309 0.012520133 0.003339393
-0.015488728 0.0017071515 0.009003878 0.00628495 0.0067622135 -0.00798779 0.009692233 0.009678537
-0.013219088 -0.009468151 0.011800571 -0.007154394 -0.007119215 -0.012288542 -0.0053823562 -0.009510516
-0.0086507425 -0.0013402303 -0.010154813 0.013355285 -0.0059120515 -0.013785996 0.009271187 0.002997493
-0.0028648977 0.0024057748 0.012615236 -0.010751487 -0.010141389 -0.004662129 0.0011596816 0.006952064
0.014827787 0.012959592 0.011532534 0.0053035477 0.009201398 -0.0013224202 -0.0068244585 0.014882986
-0.0015636531 0.015427943 -0.002342413 -0.011295175 -0.0012980794 0.014971161 -0.0050226715 0.0038246666
-0.002086372 -0.003945933 -0.010003294 0.004715922 0.0011460301 -0.0019007113 0.01063166 -0.0029226786
0.015097692 -0.007604104 0.0065012206 -0.006175111 0.0035918779 -0.0008569366 -0.013059305 0.005054872
0.011995331 -0.004878934 0.002194195 -0.015560339 -0.0055854702 0.002932015 -0.0060064853 -0.0145403845
0.009801669 0.0046987836 0.013931473 -0.0048152725 0.012309161 -0.01274499 0.008513681 -0.00044068
-0.009994137 0.001967249 -0.0017894063 -0.0061298423 0.0033664037 0.008927064 -0.008078109 -0.010392646
-0.011291386 -0.0018882399 -0.013453368 -0.0029017166 0.01470907 0.009516092 0.0048917793 -0.009993127
0.0112787215 0.002871809 0.0128805 -0.012570837 -0.014111026 -0.005011854 -0.0023911814 -0.0017927976
0.00852964 -0.008368051 0.014862789 -0.005500993 0.0017311885 -0.0055196104 0.0052351123 -0.010619448
-0.009035214 -0.0070649716 0.0139962975 -0.003386014 0.015540944 0.011767619 -0.0023984564 -0.0021367776
0.0002722647 -0.0151579445 -0.000966524 0.00736803 -0.0021163092 0.00597917 0.0015135865 0.00926727
-0.007656724 0.014336035 0.013888508 -0.013563678 0.0076172072 -0.010410105 0.0010746097 -0.013147845
-0.00650287 -0.008629929 0.015202126 -0.015290522 0.0058470597 0.0027684346 0.014518241 0.0041802903
-0.0095817195 -0.013796248 0.0057972353 -0.008649163 -0.015207406 -0.008056493 0.015519204 -0.0073840627
-0.013302853 -0.0012302737 -0.0068582394 0.0149667775 0.011902615 0.007617415 -0.0031265041 0.008892184
-0.010684329 0.0105683375 -0.006406318 -0.008609051 -0.015115341 0.0027869914 0.00799115 -0.0088433875
-0.001844629 -0.0037431428 0.0013496018 -0.01347052 0.009337701 -0.0005600994 -0.0059484025 0.012834974
0.00034168223 0.014510962 -0.005215804 -0.007210391 -0.014536746 -0.015584997 0.0005326476 0.0021933876
00000000: b63b 2cbc eda0 9fbb 08e6 3c3c 4d7f 693c
00000010: 683d f93b 32e0 5f3c 5c1f 45bb d95c c0bb
00000020: 465a 053c 8690 763c 2c4d 6cbc 96fa 313c
00000030: 4b49 0abc 9780 113c 6fac f4bb d6ff 573b
00000040: b604 783b a5c6 3b3c 837d bfbb fed8 1f3b
00000050: 4df6 653a 597f 0b3b 61dc 70bc 510b f6bb
00000060: 5254 1abb fee5 54ba 568b 14bc 38b7 acbb
00000070: 0e23 5dbc 55c2 0ebc 9c34 24bc e80d e73b
00000080: 6189 14bb c18d f93b 9113 01bc 64f2 9fbb
00000090: 99e8 d43a 30a1 3ebc c55a 643c a095 2e3c
000000a0: 0a60 58bb a133 23ba 1050 e6bb 4bf1 913b
000000b0: eac7 693c 2d84 9ebb eaa8 723c 8679 7abb
000000c0: 4c83 c63b 7c8c d23b 0a1b 20bc 842b 33bb
000000d0: dbfe 62bc 7f0d 1fbb 3694 6dbb d5d6 283b
000000e0: 14aa a13a 6ed9 b13a d8a1 243c 203b 613c
000000f0: a01f 49bc 5024 52ba 3764 9fb9 c766 b7bb
00000100: cb29 383c 751b b9bb c6cd 953b 7eb0 74bc
00000110: 3a9b 57bc cac8 70bc 3e21 4d3c b8d9 5a3b
00000120: 6fc4 7dbc 80c2 df3a 0085 133c fbf1 cd3b
00000130: 8f95 dd3b 38df 02bc 2ccc 1e3c ba92 1e3c
00000140: e094 58bc 4e20 1bbc 2f57 413c 686f eabb
00000150: 4e48 e9bb e255 49bc 7a5e b0bb ffd1 1bbc
00000160: d8bb 0dbc abaa afba 5f60 26bc 20d0 5a3c
00000170: e2b9 c1bb a8de 61bc 2de6 173c 9671 443b
00000180: 02c1 3bbb 34aa 1d3b 23b0 4e3c 0127 30bc
00000190: 1228 26bc c6c4 98bb 7500 983a 24ce e33b
000001a0: 3ff0 723c 7854 543c f4f2 3c3c 62c9 ad3b
000001b0: 76c1 163c 0f55 adba b59f dfbb c5d7 733c
000001c0: 7ef3 ccba 7cc5 7c3c 2b83 19bb 660f 39bc
000001d0: 5124 aaba 9a49 753c 3995 a4bb 42a7 7a3b
000001e0: 84bb 08bb e34c 81bb dbe4 23bc 0588 9a3b
000001f0: 6436 963a 4a21 f9ba 6a30 2e3c 698a 3fbb
00000200: 4f5c 773c d92b f9bb 3108 d53b 9658 cabb
00000210: b665 6b3b 0ba4 60ba b2f6 55bc 57a3 a53b
00000220: 1188 443c 77df 9fbb 7ccc 0f3b cbf0 7ebc
00000230: 5206 b7bb 0d27 403b 0dd2 c4bb cb3a 6ebc
00000240: 2e97 203c 41f8 993b d540 643c 6fc9 9dbb
00000250: 5dac 493c 5dd0 50bc f77c 0b3c 120b e7b9
00000260: 73be 23bc f6ec 003b 838a eaba d8dc c8bb
00000270: e29e 5c3b d242 123c 0b5a 04bc eb45 2abc
00000280: 81ff 38bc d17e f7ba 846b 5cbc ba2a 3ebb
00000290: 50fe 703c 62e9 1b3c 384b a03b 36ba 23bc
000002a0: 63ca 383c f634 3c3b bc08 533c e9f5 4dbc
000002b0: ef31 67bc 7b3a a4bb 5eb5 1cbb 4efc eaba
000002c0: e7bf 0b3c 261a 09bc 0e83 733c ad41 b4bb
000002d0: 0ce9 e23a d9dd b4bb 4e8b ab3b 31fd 2dbc
000002e0: 6f08 14bc 4781 e7bb ba50 653c e3e7 5dbb
000002f0: 729f 7e3c f9cc 403c 6c2f 1dbb 2e09 0cbb
00000300: c0be 8e39 0759 78bc 545e 7dba 846f f13b
00000310: c7b1 0abb eaec c33b 8963 c63a bfd5 173c
00000320: 42e5 fabb b0e1 6a3c a08c 633c 303a 5ebc
00000330: c499 f93b 258f 2abc ebd9 8c3a 0f6a 57bc
00000340: 0716 d5bb 8c64 0dbc 5612 793c 1985 7abc
00000350: b198 bf3b a06e 353b ebdd 6d3c d1fa 883b
00000360: a5fc 1cbc a809 62bc bcf6 bd3b 38b5 0dbc
00000370: 7c28 79bc 61ff 03bc 4244 7e3c 02f6 f1bb
00000380: 36f4 59bc 2341 a1ba 15bb e0bb 3737 753c
00000390: 3003 433c 829b f93b 09e6 4cbb 86b0 113c
000003a0: 530d 2fbc d226 2d3c 17ec d1bb fa0c 0dbc
000003b0: 56a6 77bc f5a5 363b 50ed 023c dbe3 10bc
000003c0: 7ac7 f1ba 844f 75bb 1fe5 b03a 75b3 5cbc
000003d0: 28fd 183c a2d3 12ba d1ea c2bb c849 523c
000003e0: d023 b339 63bf 6d3c 56e9 aabb 2545 ecbb
000003f0: 882b 6ebc 3758 7fbc 60a1 0b3a f0be 0f3b

line2.bias f4 [8]
0.008585376 -0.035023887 -0.0017463898 0.015143859 -0.0101705585 0.009338753 -0.0072114244 0.0065481723
00000000: ada9 0c3c 3575 0fbd 1ee7 e4ba f31d 783c
00000010: 6aa2 26bc 9201 193c d04d ecbb 0d92 d63b

line3.weight f4 [4096, 8]
-0.23827535 -0.004131821 -0.32810006 -0.011762082 0.3389096 -0.17530759 0.22015291 0.052149896
-0.22938389 0.048111282 -0.30529773 -0.099690884 -0.06299065 -0.24924408 -0.24856208 0.28754458
-0.0853467 -0.16879927 0.30166873 -0.1166219 -0.17875464 -0.11032405 -0.20603418 -0.004954234
-0.015642965 -0.0067740483 -0.29901674 -0.10094625 -0.3323828 -0.081412844 0.26669943 -0.15192863
-0.0031858352 -0.018069642 -0.17620447 -0.33014256 0.22642152 -0.18401182 -0.16852969 -0.33544037
0.33179176 -0.25300756 -0.1990412 0.056202553 0.35230166 -0.31658855 0.2949948 0.29200554
-0.2472772 -0.086257376 -0.112481065 0.20427476 0.056253124 0.24169175 -0.34016544 0.08473695
-0.10669441 0.23686811 -0.21879396 0.14734676 0.0023481424 -0.12359892 0.29029292 -0.09467295
-0.26754153 -0.054179557 -0.012652073 0.050416518 0.2056202 -0.34360945 0.31889585 0.11752151
0.088672906 0.31054914 0.1496772 0.20189002 0.32127434 -0.29101992 -0.21967989 -0.13492605
-0.18017757 0.19238994 0.13435364 -0.14268307 -0.21541187 0.30599234 -0.23733567 0.12455923
-0.10860951 -0.33295098 -0.24768959 -0.07942661 0.2962044 -0.32595563 0.0145222 0.17790644
0.05068489 0.23491687 0.3264979 0.23338585 -0.009023506 0.005310548 -0.080331005 -0.18689543
0.027491022 -0.29925606 0.2897486 -0.23409007 0.21157509 -0.013039484 -0.2199502 0.12008324
0.18561 0.2767708 0.016667686 0.23536949 0.2761238 -0.25662148 0.15382536 0.3117897
-0.25157642 0.1958836 0.3176051 0.263406 0.1402568 -0.0068242275 0.10940089 -0.34368062
-0.27406 -0.038972817 0.2509852 0.21298213 0.32467872 0.06315153 0.20158413 0.09740297
-0.26498044 0.26125467 -0.3373659 -0.26981547 -0.08239137 0.142748 -0.35223696 0.0333261
0.28118914 0.14785708 0.078947276 -0.17973478 -0.14578965 0.33568528 -0.2847591 -0.25421226
-0.09375806 0.28818643 -0.27006435 0.094491795 -0.24035913 0.05069878 -0.07974008 0.30672368
0.2237783 -0.26622742 -0.05888505 0.26731384 -0.039350457 0.29238066 -0.34474137 -0.13547274
0.3112663 0.06871394 0.27846578 -0.09834637 0.11303017 -0.005334149 -0.015406983 -0.21892485
-0.057295408 -0.06977876 0.14653493 -0.23514408 0.29819414 0.2980869 0.33198506 -0.03128763
0.20282015 -0.18454923 0.2727908 0.28514394 -0.12609716 -0.21419439 0.072484136 0.2808516
-0.17449988 0.34715986 0.31263903 -0.09909381 0.24811338 -0.13217223 -0.26194915 0.039272476
-0.17428438 0.0066187275 0.038169965 -0.08221943 0.10992075 0.28026927 0.023070397 0.041866697
0.2635597 0.027276607 -0.24131308 0.27117455 0.13001779 0.32926244 -0.04216365 -0.28417432
-0.09239272 0.071495734 -0.31615615 -0.034476366 0.19522357 -0.17429776 -0.29218054 0.28078163
0.27619663 0.23048167 0.04291418 0.340072 -0.0089589795 -0.0009791089 -0.2767725 0.25872272
-0.33180687 0.2985485 -0.23330222 0.2795872 -0.14936607 0.098799445 -0.31079653 0.09717415
0.031962 -0.1373717 0.16014236 0.21390408 -0.07438333 0.17565629 -0.3220116 -0.10132393
-0.3232629 -0.18721068 -0.12813 -0.3335665 -0.10317389 0.20928486 -0.0012264116 0.14710371
00000000: 74fe 73be 3a64 87bb bbfc a7be bfb5 40bc
00000010: 8f85 ad3e d583 33be c46f 613e 219b 553d
00000020: 9ce3 6abe 5610 453d fc4f 9cbe bc2a ccbd
00000030: 3e01 81bd d739 7fbe 0f87 7ebe 0b39 933e
00000040: 40ca aebd b7d9 2cbe 5374 9a3e 76d7 eebd
00000050: 750b 37be 93f1 e1bd a0fa 52be 2157 a2bb
00000060: ad25 80bc d6f8 ddbb b918 99be e8bc cebd
00000070: 142e aabe c7bb a6bd d48c 883e 2e93 1bbe
00000080: 72c9 50bb c906 94bc f26e 34be 7208 a9be
00000090: 0bdb 673e 986d 3cbe 0c93 2cbe d7be abbe
000000a0: 9ce0 a93e 358a 81be 75d1 4bbe a634 663d
000000b0: e260 b43e e517 a2be 8f09 973e c081 953e
000000c0: 3c36 7dbe b5a7 b0bd 795c e6bd 672d 513e
000000d0: ad69 663d 0b7e 773e 2a2a aebe 918a ad3d
000000e0: 9982 dabd 8e8d 723e 860b 60be 12e2 163e
000000f0: 4be3 193b 6e21 fdbd 46a1 943e e4e3 c1bd
00000100: 34fb 88be 62eb 5dbd a44a 4fbc 8d81 4e3d
00000110: 1a8e 523e 94ed afbe 5146 a33e 1eaf f03d
00000120: 249a b53d 4c00 9f3e fb44 193e 42bc 4e3e
00000130: 127e a43e 9000 95be c4f3 60be 0e2a 0abe
00000140: 7880 38be de01 453e 0094 093e 831b 12be
00000150: ee94 5cbe 07ab 9c3e 1f08 73be e918 ff3d
00000160: aa6e debd 8d78 aabe 57a2 7dbe 6baa a2bd
00000170: 1aa8 973e a8e3 a6be 86ee 6d3c 1b2d 363e
00000180: f69a 4f3d 0c8e 703e bc2a a73e b3fc 6e3e
00000190: 54d7 13bc 1b04 ae3b 9584 a4bd 8461 3fbe
000001a0: da34 e13c 1738 99be ee59 943e 4fb5 6fbe
000001b0: 24a7 583e 8fa3 55bc a03a 61be 34ee f53d
000001c0: 8c10 3e3e e7b4 8d3e ac8a 883c b304 713e
000001d0: 1960 8d3e e463 83be 6584 1d3e e6a2 9f3e
000001e0: a0ce 80be b695 483e 239d a23e 27dd 863e
000001f0: 7b9f 0f3e c59d dfbb 930d e03d e8f6 afbe
00000200: 9851 8cbe f6a1 1fbd 2281 803e fd17 5a3e
00000210: 4a3c a63e 9755 813d 126c 4e3e 357b c73d
00000220: 84ab 87be 2cc3 853e 39bb acbe 4125 8abe
00000230: cebc a8bd 882c 123e 6758 b4be f380 083d
00000240: 06f8 8f3e d967 173e 1caf a13d 650c 38be
00000250: e249 15be f1de ab3e f2cb 91be 1c28 82be
00000260: 3a04 c0bd 2c8d 933e e045 8abe ea84 c13d
00000270: b420 76be 86a9 4f3d c44e a3bd e30a 9d3e
00000280: 2426 653e f64e 88be 7331 71bd 5cdd 883e
00000290: f22d 21bd ebb2 953e f181 b0be 5eb9 0abe
000002a0: 4c5e 9f3e e5b9 8c3d 1193 8e3e d269 c9bd
000002b0: 5d7c e73d 16ca aebb 926d 7cbc d62d 60be
000002c0: 97ae 6abd 2be8 8ebd 410d 163e 9cc9 70be
000002d0: e7ac 983e d99e 983e f2f9 a93e 7527 00bd
000002e0: 16b0 4f3e 79fa 3cbe 3cab 8b3e 63fe 913e
000002f0: 9d1f 01be c655 5bbe 9072 943d c8cb 8f3e
00000300: 19b0 32be f0be b13e 3912 a03e b2f1 cabd
00000310: 6f11 7e3e 2858 07be 331e 86be 2ddc 203d
00000320: 9b77 32be e9e1 d83b 1c58 1c3d a962 a8bd
00000330: 211e e13d 747f 8f3e 21fe bc3c 6a7c 2b3d
00000340: 4cf1 863e 3173 df3c c71a 77be 64d7 8a3e
00000350: 6223 053e 1695 a83e cbb3 2cbd 4c7f 91be
00000360: 6538 bdbd 5b6c 923d 38df a1be 1737 0dbd
00000370: b0e8 473e 1d7b 32be b098 95be 9cc2 8f3e
00000380: a569 8d3e 6303 6c3e c7c6 2f3d eb1d ae3e
00000390: afc8 12bc 7155 80ba 20b5 8dbe 4e77 843e
000003a0: 97e2 a9be 59db 983e c7e6 6ebe 0e26 8f3e
000003b0: 6bf3 18be 5d57 ca3d b920 9fbe 3e03 c73d
000003c0: 96ea 023d 2bab 0cbe 5cfc 233e ac09 5b3e
000003d0: 4a56 98bd 3edf 333e b4de a4be ec82 cfbd
000003e0: b782 a5be 28b4 3fbe 8334 03be 3ac9 aabe
000003f0: d54c d3bd c54e 563e 8bbf a0ba 5ba2 163e

line3.bias f4 [4096]
0.3131554 0.23322052 -0.31448922 -0.33188283 -0.13301957 -0.11318667 -0.31599078 0.25930312
0.12656294 -0.20053092 -0.22689797 0.35030654 0.067800045 0.23210227 -0.09386074 -0.19100843
-0.23296314 -0.3173614 0.19395366 0.08093265 -0.22371322 -0.1308699 0.2742018 -0.09742895
0.05932055 0.07949457 -0.017313443 0.2657072 0.14246795 0.3329808 0.0024654556 0.31555605
0.26506937 0.12556063 0.0011825098 -0.1946954 -0.018291514 -0.027841106 -0.31049278 0.067078665
0.11324916 0.21948412 0.006555557 0.20807578 -0.0843085 -0.0076373545 0.09412066 0.0610347
-0.29573268 0.10116676 0.12756744 -0.016507674 -0.2073938 -0.0036863955 0.18416649 0.0028874683
0.24242102 0.18258357 0.12412485 -0.30949214 0.2928912 0.074230514 0.157004 -0.16606891
-0.06228094 0.2913919 -0.029958226 -0.09200248 -0.002558867 0.30636287 0.022721557 -0.124979205
0.06720781 0.23790622 0.31533912 -0.2300454 -0.3081261 -0.05426224 -0.1890163 0.276253
0.22917396 -0.33949682 0.06569466 -0.22791903 0.14619881 0.10980358 -0.3329012 0.16951773
-0.24361978 0.14579327 -0.154144 0.17776152 0.12557214 -0.1265797 0.30007774 0.35179284
-0.0064654127 -0.27141175 0.2421533 0.13086542 0.09531672 -0.26855195 -0.33391738 0.116510905
-0.31134066 -0.3240576 0.10827984 0.067347996 0.107077815 0.249335 0.011740638 -0.31829873
-0.16774261 -0.20862631 0.006180875 -0.25842512 0.00419718 0.07002985 0.26039106 -0.14787127
0.01536436 0.032631654 -0.29134035 0.26332533 0.3201365 0.1551766 -0.2305788 0.020281108
-0.18261433 0.11202194 -0.06766811 0.16477211 -0.044354364 -0.03361187 0.033671975 0.1721151
-0.24247539 0.20173264 -0.019771503 -0.32893628 -0.13700877 0.02040469 0.26003125 -0.20985651
-0.15088628 -0.19272888 -0.1633607 -0.28293806 0.16382127 0.010926187 -0.0990883 -0.33491626
0.14720343 0.077004634 -0.15659368 -0.012632396 0.13146628 0.26522982 0.06269669 0.08187125
-0.3322176 -0.3397976 0.08271267 0.15074976 0.10652657 -0.14658496 0.21049966 -0.13249251
-0.3346826 -0.1590699 0.111794904 -0.227438 0.13428634 -0.11179518 -0.2620793 -0.10130396
-0.33029422 0.3247038 -0.09077895 0.2578348 -0.14087364 -0.31597644 0.23988968 -0.30645815
-0.040481824 0.29252082 -0.1396054 -0.028786108 0.20089175 -0.33578676 -0.16007425 -0.18636696
-0.034266263 -0.31727645 0.26012635 -0.069321945 0.01795709 0.32278207 0.02156597 0.3068844
0.24556768 0.16043764 0.04753433 0.11370465 0.2041864 0.09942006 -0.008032382 -0.13010237
0.3367096 -0.227697 -0.075443156 -0.05027708 0.101481184 -0.25571203 -0.061349165 0.11477459
0.21857415 0.2536545 -0.09769952 0.01891645 -0.3394388 0.3241492 -0.3295845 0.0011728216
-0.3280091 0.20523869 0.012848476 -0.12214064 -0.30288264 0.09469597 -0.046828307 0.25072643
0.1172039 0.066235445 0.24361898 -0.22126248 -0.1665769 -0.16391905 0.00071830786 -0.02926202
0.28118694 0.28788373 -0.21504061 0.122770116 -0.00677429 0.14121144 -0.1363498 -0.12616739
0.28043538 0.17984195 0.31241137 0.31688708 -0.3040903 -0.24952802 0.011923587 0.1552978
00000000: e855 a03e 5cd1 6e3e bb04 a1be 8cec a9be
00000010: 4836 08be 6ace e7bd 8bc9 a1be 61c3 843e
00000020: b799 013e fa57 4dbe f157 68be 615b b33e
00000030: c0da 8a3d 38ac 6d3e 0f3a c0bd b797 43be
00000040: e48d 6ebe 327d a2be ca9b 463e 04c0 a53d
00000050: 1415 65be c202 06be 2e64 8c3e d488 c7bd
00000060: 1bfa 723d 0dce a23d ecd4 8dbc c60a 883e
00000070: 1ee3 113e 767c aa3e 7b93 213b 9090 a13e
00000080: 2cb7 873e f792 003e 72fe 9a3a 3b5e 47be
00000090: 16d8 95bc 0813 e4bc e9f8 9ebe 8a60 893d
000000a0: 2def e73d 72c0 603e ffcf d63b d111 553e
000000b0: efa9 acbd c642 fabb 55c2 c03d 86ff 793d
000000c0: 466a 97be 8530 cf3d 0aa1 023e 1a3b 87bc
000000d0: 0a5f 54be 7497 71bb 2496 3c3e ae3b 3d3b
000000e0: 373d 783e 30f7 3a3e 2b35 fe3d c175 9ebe
000000f0: d6f5 953e 2b06 983d a8c5 203e f80d 2abe
00000100: 4d1a 7fbd 5231 953e f46a f5bc cc6b bcbd
00000110: aab2 27bb 98db 9c3e 8f22 ba3c 19f5 ffbd
00000120: 40a4 893d b09d 733e 2174 a13e 0591 6bbe
00000130: b4c2 9dbe 1542 5ebd 7d8d 41be 0971 8d3e
00000140: 94ac 6a3e 87d2 adbe ec8a 863d 9b63 69be
00000150: 24b5 153e b3e0 e03d 0772 aabe 0e96 2d3e
00000160: 7777 79be d54a 153e edd7 1dbe 1e07 363e
00000170: fc95 003e 1c9e 01be caa3 993e 311e b43e
00000180: d0db d3bb 7bf6 8abe 09f7 773e 9601 063e
00000190: 6a35 c33d a47f 89be 38f7 aabe 459d ee3d
000001a0: 0b68 9fbe e1ea a5be d2c1 dd3d bfed 893d
000001b0: 9d4b db3d ad51 7f3e ce5b 403c 0df8 a2be
000001c0: b8c4 2bbe 23a2 55be f088 ca3b 4c50 84be
000001d0: 7f88 893b cf6b 8f3d fa51 853e 916b 17be
000001e0: ccba 7b3c c5a8 053d 902a 95be 94d2 863e
000001f0: eee8 a33e 9de6 1e3e d91c 6cbe 9124 a63c
00000200: 40ff 3abe c26b e53d 9495 8abd 05ba 283e
00000210: ecac 35bd 9aac 09bd a0eb 093d f13e 303e
00000220: 784b 78be 0093 4e3e d9f7 a1bc 566a a8be
00000230: 074c 0cbe bd27 a73c d122 853e a0e4 56be
00000240: ef81 1abe b85a 45be 0748 27be 42dd 90be
00000250: c3c0 273e c003 333c ceee cabd 257a abbe
00000260: 7fbc 163e 9bb4 9d3d 185a 20be 1cf8 4ebc
00000270: 199f 063e 34cc 873e 1f67 803d 1dac a73d
00000280: 6d18 aabe f3f9 adbe 4365 a93d 255e 1a3e
00000290: 9a2a da3d 5e1a 16be 398d 573e 1eac 07be
000002a0: 855b abbe 38e3 22be baf4 e43d 82e5 68be
000002b0: 5c82 093e dff4 e4bd 422f 86be 7378 cfbd
000002c0: 531c a9be 943f a63e 50ea b9bd ec02 843e
000002d0: 2e41 10be aac7 a1be a4a5 753e 15e8 9cbe
000002e0: 45d0 25bd 4ac5 953e b8f4 0ebe d8d0 ebbc
000002f0: 91b6 4d3e 3eec abbe 81ea 23be fbd6 3ebe
00000300: c85a 0cbd 0f72 a2be 482f 853e aaf8 8dbd
00000310: bf1a 933c b143 a53e 1eab b03c f41f 9d3e
00000320: 1876 7b3e c449 243e 5cb3 423d fcdd e83d
00000330: 3d16 513e bf9c cb3d 409a 03bc 8e39 05be
00000340: 3365 ac3e 6729 69be f181 9abd 57ef 4dbd
00000350: 5ed5 cf3d b0ec 82be 4349 7bbd f10e eb3d
00000360: e7d1 5f3e 01df 813e b016 c8bd acf6 9a3c
00000370: ecca adbe e2f6 a53e 4dbf a8be 5db9 993a
00000380: cff0 a7be 172a 523e 6a82 523c df24 fabd
00000390: 6f13 9bbe f6ef c13d 0acf 3fbd 375f 803e
000003a0: 9908 f03d 73a6 873d 4177 793e a292 62be
000003b0: 2393 2abe 65da 27be d34c 3c3a e7b6 efbc
000003c0: bcf7 8f3e 7f65 933e 9b33 5cbe e66e fb3d
000003d0: ddfa ddbb bb99 103e 489f 0bbe 0632 01be
000003e0: 3a95 8f3e 7d28 383e 62f4 9f3e 063f a23e
000003f0: b9b1 9bbe 4684 7fbe 265b 433c 6306 1f3e

line_end.weight f4 [1, 4096]
0.00336171 0.034297384 0.010547755 0.0052286102 0.00558849 0.016757725 0.017886858 -0.010395806
-0.0066735577 -0.009602995 -0.007903851 0.016421631 -0.0009647767 -0.013812839 0.0045682197 -0.02457561
-0.033645254 -0.006817465 -0.0102471495 0.0058290423 0.006913189 -0.01492067 -0.04416606 0.0128180785
-0.019522164 -0.021199618 -0.00094969006 0.027909739 0.011194612 0.032437403 -0.0042025913 -0.007407285
-0.0008530837 0.016934603 -0.007912263 -0.015158727 -0.009204836 0.044850554 -0.015891263 -0.017439572
-0.011170557 -0.019373396 0.012932334 -0.00039830623 -0.043325346 0.0032144082 0.03808054 -0.019326285
0.012362212 -0.028060563 -0.029228512 0.04001351 -0.008293735 -0.0072668777 0.0032124016 3.0759882e-06
-0.009500589 0.03716119 0.0047737746 -0.015063707 0.020308178 -0.009344235 -0.009380971 -0.0077386596
0.0070254216 -0.013301121 0.040048372 -0.012027275 -0.031935785 -0.014988166 0.012243686 -0.030099373
-0.006701153 -0.023002105 0.0074373307 -0.00080707314 -0.03281552 0.026739962 -0.008567899 0.051360976
-0.0153741995 0.002028945 -0.0668801 -0.002807939 -0.018148946 0.036364462 0.040468946 0.00071918464
0.028620925 0.016907396 -0.028884582 0.045048766 -0.042621646 0.037508897 -0.006854918 0.016794529
-0.0095877405 0.0029542807 -0.051108155 -0.027552754 -0.031507824 0.00914224 -0.03649692 -0.00050473475
-0.03010601 0.017212981 0.034328464 -0.036378104 -0.038731664 0.02034001 0.03685532 0.045926847
0.055529773 -0.011281159 -0.03333438 0.03681891 -0.021979652 -0.016482776 -0.0028193903 0.033670746
-0.038112238 0.037423138 0.013945914 -0.0012053663 -0.013997413 -0.025760483 0.034631908 0.00026936966
-0.011070294 0.03077208 -0.0021166743 0.0226358 0.009035578 -0.022370031 0.017534267 0.023669358
-0.010986523 -0.013911088 0.00788742 -0.006861924 -0.0033401079 0.010446335 0.051287387 0.027786925
0.013061119 -0.0026338007 -0.0038479147 0.02458399 -0.016021267 -0.021402502 -0.010440927 -0.029695502
-0.0049030506 0.039681613 0.004151972 -0.020672113 0.0028099637 0.03653568 -0.029904462 0.013467753
-0.032114495 0.009607055 -0.0025420566 -0.0035539304 0.019994918 0.015943235 0.0077972873 -0.0077977874
-0.0031912848 0.0017504924 0.026345186 -0.025685994 -0.0038072206 0.005805796 0.012993646 -0.0063284663
0.037077505 0.006671888 -0.0044878987 0.024685992 0.024845308 0.0006156839 -0.006082118 -0.0032765141
-0.032827225 -0.0036721386 0.001152009 -0.037175663 0.023466019 0.014214071 0.043025427 0.03818757
-0.012083537 -0.0040942673 -0.010810765 0.011526617 0.020917699 0.012023959 -0.0122791035 -0.006177092
0.018977698 -0.016405025 -0.011765667 0.01036183 0.004382876 0.009075911 0.023790993 -0.015163797
-0.03813126 0.037941586 -0.039131068 -0.038240205 0.027022213 0.009556262 -0.03231944 -0.0012739814
0.032475203 -0.0030507557 0.013589304 0.040621098 0.0040610624 0.0022761992 -0.045615 0.0034463801
0.01338085 -0.018865287 0.010271558 -0.0032216646 0.0070281746 0.031729426 0.051146157 -0.010818376
0.017056646 0.027011061 0.026635591 -0.020380395 0.02103448 -0.04743081 0.018095616 -0.018300485
0.055282354 0.008354964 0.0243781 0.03561464 0.042857762 0.017011525 0.013381325 -0.011277486
0.03483216 0.03076573 -0.0060017174 -0.028019527 -0.007274417 -0.045617145 -0.003947207 -0.04115821
00000000: 2350 5c3b 6a7b 0c3d 7ed0 2c3c c354 ab3b
00000010: a71f b73b 7f47 893c 7687 923c 2c53 2abc
00000020: dcad dabb e155 1dbc 277f 01bc a886 863c
00000030: 11e9 7cba 3f4f 62bc 01b1 953b ca52 c9bc
00000040: 9bcf 09bd 0b65 dfbb a9e3 27bc 8d01 bf3b
00000050: 0888 e23b d375 74bc 78e7 34bd eb02 523c
00000060: f2ec 9fbc d2aa adbc 9ff4 78ba f7a2 e43c
00000070: 9b69 373c 15dd 043d e4b5 89bb cfb8 f2bb
00000080: 7aa1 5fba 70ba 8a3c 70a2 01bc 4f5c 78bc
00000090: e1cf 16bc 37b5 373d 652e 82bc 6fdd 8ebc
000000a0: b604 37bc f5b4 9ebc 24e2 533c c2d3 d0b9
000000b0: eb75 31bd d2a8 523b 57fa 1b3d 2852 9ebc
000000c0: e08a 4a3c 44df e5bc a270 efbc 35e5 233d
000000d0: 72e2 07bc fd1e eebb 2887 523b 136d 4e36
000000e0: 5ca8 1bbc 5536 183d 536d 9c3b c4cd 76bc
000000f0: 565d a63c 9018 19bc a5b2 19bc 9594 fdbb
00000100: 8235 e63b f2ec 59bc c309 243d 0c0e 45bc
00000110: 19cf 02bd ed90 75bc be99 483c f692 f6bc
00000120: 5895 dbbb e96e bcbc dab4 f33b c391 53ba
00000130: 9169 06bd c40d db3c 6060 0cbc e35f 523d
00000140: 11e4 7bbc 0cf8 043b 6ff8 88bd 6605 38bb
00000150: 19ad 94bc e7f2 143d c4c2 253d aa87 3c3a
00000160: 6e76 ea3c 6181 8a3c 5c9f ecbc 0e85 383d
00000170: 0994 2ebd eea2 193d 389f e0bb ae94 893c
00000180: e615 1dbc 9b9c 413b c956 51bd 50b6 e1bc
00000190: 590e 01bd 55c9 153c cb7d 15bd 2d50 04ba
000001a0: e1a0 f6bc 3d02 8d3c 019c 0c3d 3501 15bd
000001b0: 18a5 1ebd 18a0 a63c 9bf5 163d ca1d 3c3d
000001c0: 3073 633d 9cd4 38bc a189 08bd 6dcf 163d
000001d0: ac0e b4bc e306 87bc 85c5 38bb 56ea 093d
000001e0: 941b 1cbd 0149 193d 677d 643c 62fd 9dba
000001f0: 6855 65bc a607 d3bc 30da 0d3d 2f3a 8d39
00000200: 2e60 35bc bb15 fc3c e7b7 0abb b76e b93c
00000210: f609 143c 5b41 b7bc 06a4 8f3c 3ee6 c13c
00000220: d100 34bc 55eb 63bc 3d3a 013c fed9 e0bb
00000230: b6e5 5abb 1b27 2b3c b912 523d 68a1 e33c
00000240: 4efe 553c d89b 2cbb 4c2d 7cbb 5d64 c93c
00000250: 083f 83bc 4d54 afbc 6c10 2bbc fb43 f3bc
00000260: c5a9 a0bb 3089 223d 440d 883b 9058 a9bc
00000270: 5e27 383b 70a6 153d 34fa f4bc daa7 5c3c
00000280: 7d8a 03bd e966 1d3c a298 26bb 0fe9 68bb
00000290: 62cc a33c 639b 823c 6380 ff3b 9584 ffbb
000002a0: e024 51bb c770 e53a dcd1 d73c 6f6b d2bc
000002b0: 9082 79bb 8c3e be3b 4de3 543c 065f cfbb
000002c0: 95de 173d da9f da3b 390f 93bb 473a ca3c
000002d0: 6388 cb3c d965 213a 814c c7bb c9ba 56bb
000002e0: d775 06bd 43a8 70bb 02ff 963a 8245 18bd
000002f0: cf3b c03c 23e2 683c 6e3b 303d 926a 1c3d
00000300: 07fa 45bc 3429 86bb a31f 31bc 23da 3c3c
00000310: 985b ab3c 2400 453c 4b2e 49bc 3469 cabb
00000320: 1e77 9b3c d563 86bc c9c4 40bc aac4 293c
00000330: 3b9e 8f3b 21b3 143c 54e5 c23c 9371 78bc
00000340: 862f 1cbd a368 1b3d e647 20bd c3a1 1cbd
00000350: b05d dd3c de91 1c3c 6461 04bd b9fb a6ba
00000360: b804 053d 30ef 47bb aca5 5e3c 4f62 263d
00000370: a912 853b 492c 153b cbd6 3abd aadc 613b
00000380: 5a3b 5b3c 608b 9abc 094a 283c 9022 53bb
00000390: 9a4c e63b b7f6 013d a27e 513d 8f3f 31bc
000003a0: 61ba 8b3c 4d46 dd3c e232 da3c c9f4 a6bc
000003b0: 8050 ac3c cf46 42bd 423d 943c e6ea 95bc
000003c0: c06f 623d 42e3 083c 95b4 c73c a8e0 113d
000003d0: 9f8b 2f3d c15b 8b3c 583d 5b3c 34c5 38bc
000003e0: 2bac 0e3d 6a08 fc3c 0eaa c4bb 3589 e5bc
000003f0: 3c5e eebb 0bd9 3abd 9257 81bb 8395 28bd
